model_overfit.pth (torch, 60117 bytes, 13 tensors)

emb.weight f4 [5, 64]
00000000: 4ccf 2640 5eb6 6b3f 7312 32bf 3c20 f13e
00000010: 2603 ab3e e3da b2be 26b8 613f dbbd 493f
00000020: c987 b6bc da16 0dbf f7fe 27bf 22cf 03c0
00000030: 1d5f debf 1174 a63d 4348 69bf 1fd9 78bf
00000040: 28c1 433d f0fa 003e 1710 a33f 6543 8dbf
00000050: 71dc 80bf a6ed 583f 962d 73be 412b 023e
00000060: 7e1d 353f c626 773f 5333 9ebe 3b0c 54be
00000070: ace2 97bf b782 89bd 7f23 8c3e d12c f5be
00000080: c58e 983e 4f16 763f 8271 f3bf f589 20bf
00000090: 8dae 463f 2780 40be 4075 823f f5b1 a3bf
000000a0: e698 d93d cb4b cfbe 4b7d 0abf b741 213f
000000b0: 4f0f 063f 07cf 88be 8fd2 593e 9741 07c0
000000c0: 6c8b 94be 3975 273f ed10 b73e 6704 52bf
000000d0: 45f4 813f b805 11bf 04f6 cb3e 5d1b 87be
000000e0: f322 ee3e d9d8 523f d6a3 3abf 4623 fcbd
000000f0: 7763 88bf 6f7e fc3f 0ba7 01c0 63f6 56be
00000100: 2640 f6be 7239 cf3f 9d46 503f f852 e5be
00000110: 46a6 a13f 5e14 f53d b74c 443f 8d53 c5bf
00000120: 39a2 6c3f 3b28 81bf 44c1 fe3e 06a2 81be
00000130: 355b 363e 94f3 c9bf 49f4 cdbe 8568 173e
00000140: 2bfc 60be ed7d 1f3f c047 b0be 3c0a 963f
00000150: 726a 9ebf 73ab 2d3f a4ce 0cbf 04fb 0f40
00000160: 1eab 8c3e 2d17 98bf 38bf ac3f 5dcc 983f
00000170: 415f c73f ed56 dd3f c9ae 1cbf ead9 90bf
00000180: 7d01 a6be 3958 58bf ba36 743e e7fe e93f
00000190: 8ed6 813e f55e 0840 1b82 8cbc c991 98be
000001a0: 5af7 57bf 1aa4 b83f c23a 6c3f afd2 8a3f
000001b0: 810d 513f 3b2c 74c0 0106 353f cb0e 93bd
000001c0: 6ba1 f23f e773 743f bdfd 09be 5c88 8fbf
000001d0: 3844 45bf 5b3e 09be 1ab0 0cc0 bd88 a2bf
000001e0: 6f1e 003e 4661 63bf 297e 10be ee4b a83e
000001f0: c279 6abf 8568 633f 3708 8a3f d1c5 1abf
00000200: ba20 173f 36de 833e 3e7e acbd 3b75 a1bf
00000210: 72b7 903e 1c81 c13e 2957 953f 5ec4 8abf
00000220: 127e 61bd e810 9b3e 31d7 1b3e 187b 9bbe
00000230: 3c9a 193f 5100 a03f 08b7 3ebe e412 103f
00000240: 27d0 b93c dea0 5abe a9b4 c63f 8eb0 19bf
00000250: 4ef7 80bf d3c0 1dbe 8348 003f ecc1 f5bf
00000260: 4d7b 293f d84b d8bf dbc5 de3e 4338 35bf
00000270: 2ac8 33bf f695 56bd 817c 803a b75a c4bf
00000280: bdd4 31be 9542 063f 9394 66bf c4a4 833f
00000290: 4edf 92bf 5edc 043f 0442 123d 5f68 8dbe
000002a0: 6cfb d03f 9247 0ac0 f3a9 013f f7ef 2040
000002b0: b049 4ebe bee6 41bf f584 3ebe 9540 923f
000002c0: d0f4 c53e f7fd 9dbf 43c4 fc3f 1715 fbbe
000002d0: 4d59 65bf a965 91be 3621 8abe 556d fcbe
000002e0: 8bca 0ebd 8f5d 6c3f 7e8a babd ad49 9abf
000002f0: ce7f 94bf 3d31 34bf 41ab 85be 3e8d 1c3c
00000300: d148 883f 458f 4f3f de4a 713f 64d1 6abe
00000310: af78 bcbd 7652 603f 9dd6 053f 96a5 79bf
00000320: 033b 1d3f 2a5b 953d 08a2 e3bf 36fd 12bf
00000330: ee98 4cbf fb3f 97be 1d26 76be aee2 49bd
00000340: 9ce8 f93f 3def 173e e30b 40be 436e 013f
00000350: 5a6f 463f 5595 ddbf 2a4f 613f f7e4 e53f
00000360: 1d8f fbbf c742 c73f bbdc 963e 3aad 2fbf
00000370: 61ff b0be 9dca bfbf a539 cd3f 85f3 da3e
00000380: 966c 1c3e ef4e 993f bc08 cf3e adf9 51bf
00000390: 5786 013f 3d95 ce3f 3eb5 89bf d39c 7abe
000003a0: 8d9e af3f 03db 3bbf e2eb 05bf 3164 943f
000003b0: da4e 8d3e 16d2 bb3f 1061 a5bf a197 15bf
000003c0: 0d2d d9be 0542 9b3e 30a5 e9be 66fe ab3e
000003d0: ad5c 8fbf 8f0e f33f 0659 863e 6a01 8ebf
000003e0: fef4 803c ebd3 9a3f 6a60 6bbf 5b3d 28be
000003f0: fa05 06c0 8f64 8b3e 201f e3be 8036 aebe
2.6064024 0.92075145 -0.695594 0.47094905 0.3340084 -0.34932622 0.88171613 0.7880532
-0.022281544 -0.55112994 -0.6562342 -2.0595174 -1.7372776 0.08127607 -0.9112589 -0.972063
0.04779163 0.12595725 1.2739285 -1.1036192 -1.0067273 0.8473762 -0.23747858 0.12711813
0.70748127 0.9654354 -0.30898532 -0.2070779 -1.186605 -0.06714385 0.2737083 -0.47885755
0.29796425 0.9612779 -1.9019015 -0.62710506 0.77610093 -0.18798886 1.0192032 -1.2788683
0.10624866 -0.40487513 -0.5409743 0.629909 0.5236711 -0.2672045 0.21271728 -2.1133783
-0.2901262 0.6541324 0.357551 -0.8203797 1.015267 -0.5664935 0.39836133 -0.26388064
0.4651104 0.82362133 -0.72906244 -0.123114154 -1.0655354 1.9726084 -2.0258205 -0.20992427
-0.48095816 1.6189406 0.8135775 -0.44789863 1.2628868 0.11966775 0.7667956 -1.5416123
0.9243503 -1.0090402 0.49756825 -0.25318927 0.1780823 -1.5777459 -0.40225437 0.14785965
-0.21971194 0.6230152 -0.3442974 1.1721873 -1.2376235 0.67839736 -0.5500281 2.2496958
0.27474302 -1.1882073 1.3495855 1.1937367 1.5575944 1.7292153 -0.612042 -1.1316502
-0.3242301 -0.8450962 0.23849002 1.8280915 0.25359005 2.1307957 -0.017151883 -0.29798725
-0.84361804 1.442508 0.9227716 1.0845546 0.8166123 -3.8151996 0.70712286 -0.07180556
1.8955511 0.9548935 -0.134757 -1.1213489 -0.7705722 -0.13402693 -2.1982484 -1.2697979
0.1251161 -0.888203 -0.14110626 0.3287043 -0.9159204 0.8883136 1.0783757 -0.60458094
0.5903431 0.2575547 -0.08422516 -1.2613901 0.28264958 0.37793815 1.1667224 -1.0841177
-0.05505187 0.30286336 0.15218808 -0.3036735 0.6000097 1.2500097 -0.18624508 0.56278825
0.022682263 -0.21350428 1.5523883 -0.60035026 -1.0075471 -0.15405588 0.50110644 -1.9199805
0.6620377 -1.6898146 0.43510327 -0.70788974 -0.702273 -0.052389108 0.000980273 -1.5340184
-0.1736631 0.52445346 -0.90070456 1.0284657 -1.1474397 0.51898754 0.03570749 -0.2761869
1.6326728 -2.1606183 0.50649947 2.5146463 -0.20145297 -0.7574271 -0.18605407 1.1425959
0.3866334 -1.2343129 1.9747394 -0.49039528 -0.8958939 -0.28397873 -0.26978463 -0.49302164
-0.03486113 0.9233026 -0.091084465 -1.2053734 -1.1601503 -0.7038763 -0.2610722 0.009555159
1.0647222 0.81077987 0.94254863 -0.22931439 -0.09202706 0.87625825 0.522806 -0.9751829
0.6141817 0.07292779 -1.7783823 -0.5741762 -0.7992085 -0.29541 -0.24037977 -0.049288444
1.9524112 0.14837356 -0.18754534 0.5055887 0.7751366 -1.7311198 0.8801142 1.79605
-1.965305 1.5567254 0.2946528 -0.686237 -0.3456984 -1.4983708 1.6033217 0.42763916
0.15275797 1.1977214 0.4043635 -0.820216 0.5059561 1.6139294 -1.0758436 -0.24473886
1.3720261 -0.7338106 -0.52313054 1.1593076 0.2759922 1.4673488 -1.2920246 -0.5843449
-0.42417184 0.30323806 -0.4563384 0.33592528 -1.1200157 1.8988818 0.26239794 -1.1094182
0.015741821 1.2095922 -0.9194399 -0.16429655 -2.0941148 0.27225158 -0.44359684 -0.34025955

ffw.weight f4 [5, 64]
00000000: 41e5 c1bc 5913 503c 5617 d83b e586 9abd
00000010: d265 9dbd bad1 e23d 4449 9abb 3d0e c0bd
00000020: ba7b 943d fc0c 763d 6a00 dc3c fe3c ef3c
00000030: 151e 40bc 746a 73bd d4ff 64bd 5388 fe3d
00000040: b535 5a3d 7f5a 55bc b61c b23d 98fd 95bd
00000050: f9b2 c9bd 2c51 f93d 4be2 bf3d a78e a4bd
00000060: d814 4e3d 46ab 0b3d a9ec 31bc ec78 a7bd
00000070: f788 efbd ca00 f7bd d15f 5f3a b0f1 1cbd
00000080: 13b5 b03d ab7a 423d d861 f2bd 1857 bebd
00000090: 3b6a 07bd f8d9 ec3c 596f e3bd 38ac fc3d
000000a0: 23a7 e73c f57a 73bd adb0 743d f2db b2bd
000000b0: 151f 383d efb4 97bd c916 a8bd c443 823d
000000c0: 6ad7 873c 5759 a63d d648 a0bc 8c83 f63c
000000d0: 8773 523c ca24 713d 407c ecbd 0255 e43d
000000e0: 3a31 efbd 2d4a fd3d a6f6 c1bd c85c cdbd
000000f0: 03f8 87bc 60e6 013d 6dd8 953d e8c6 903c
00000100: 1f64 fb3d f02c cc3d 67a0 e23d 9096 64bd
00000110: 77e1 553b e2ac d53c 65dc e63d 1137 a5bd
00000120: 4427 d83d 4e01 8cbd 5357 7a3d 1cbd a93d
00000130: 31a0 4a3d 51a6 813c 8d6a fabc 4f9f cabd
00000140: a993 403c 67d9 04bd 8c70 433d c2e4 313d
00000150: 07d4 69bd 9371 013d cd3d c03d 637a db3d
00000160: 8633 e8bd f8b5 5d3c 3e17 da3d fd62 343d
00000170: 7bfd a1bd e6f8 ca3b 70db f0bd 1c28 23bd
00000180: f352 f7bd 8851 3a3d cefc 51bd 9742 413d
00000190: d15e df3d fb0f f93c 3935 e43d 9824 9c3c
000001a0: 4424 3bbc 7f1e e53c add8 523c 7f3c 8e3d
000001b0: 23c6 e4bd b35d be3d 5344 a3bd 000a f3bc
000001c0: e9c1 b9bd 4624 ec3c e167 7abd ba39 c83d
000001d0: 7358 403c f55d e9bd ad86 133d 9d8f 6f3d
000001e0: dcc0 48bb c261 643c e410 ecbd 47b6 c7ba
000001f0: b09f c03c 0fbd 9b3d 1c04 f73c bd57 99bd
00000200: e342 c43d 10a6 5a3c d82b 973b 59ce 9ebd
00000210: b1e8 cf3c 8a18 e33b ddc8 8bbc 7223 39bc
00000220: 299e 80bc d5e1 5b3c b33a b43d dbc8 c3bd
00000230: fc2a b63d ecd3 af3d d18e 733d 12f5 8f3d
00000240: 90a9 b3bd 0be6 f03d 710d d83d 9007 4bbb
00000250: 8883 b1bd c97a fcbc 3c3f 013c 3fcc 5abd
00000260: 2465 863c 5815 93bd 4f7a ddbc aab4 61bc
00000270: 62ab 4cbc 66d1 35bd 5727 d7bd b3aa 77bd
00000280: 1a50 9d3c a3e1 313c 5668 e53c 3615 c6bc
00000290: ba08 adbc 997a 14bc 3b4c 99bd 7332 ddbc
000002a0: 3f02 df3d bf2e b7bc 9d39 ff3c a763 5a3b
000002b0: d4ca debc 8a4b 24bd ea93 5d3d 4ea4 a53d
000002c0: 90e8 cdbd 3326 663d 981f 75bd 2ab9 c03d
000002d0: bb19 db3d 4250 113d 2ed5 cf3d a689 fabc
000002e0: 97b1 fb3d 2775 06bd 6035 013d d969 483c
000002f0: 3c39 febd cd77 2f3d b029 65bd fa31 bb3d
00000300: 631b e0bd 3f08 a83d 3028 96bd 20f1 6bbd
00000310: 543f 353d 9c78 aab9 6722 a7bd 7576 81bd
00000320: f3b2 c73d 4763 b73d ed4c d63c 362c b23d
00000330: cc65 c6bc d7ec 9c3d 7387 62bd 588f 823c
00000340: 09c6 fbbd 5c69 c0bd 0270 38bd 8638 a8bd
00000350: 885d 84bc 1bf4 0c3c fb57 1fbd 9b11 a8bd
00000360: 8594 34bd b432 6a3d 72e4 5fbd 2259 4fbd
00000370: c0de de3c b315 a83d 4dbd ca3d 9004 e6bc
00000380: d5d6 f5bd 24d6 59bd 2a1c 0fbc f5fe 533d
00000390: c9c2 e4bd 8423 2ebd 8658 94bd 2767 263c
000003a0: 9f70 ef3d a59f 46bd f82a dcb9 5a5c 163d
000003b0: c63d 143d 9644 92bd f072 dc3c a10c b5bd
000003c0: 6c68 323d cc6e fc3c 61fc 7ebd 911a 00bd
000003d0: 8cc8 46bc dc1b ffbc eaa5 c73d a414 28bd
000003e0: a5ff 53bd f2e6 d63d ea06 ca3d d2e9 b83d
000003f0: 852d 703d 727a ea3d d524 893d 9c42 573c
-0.023668887 0.012699925 0.0065945787 -0.0754526 -0.07685436 0.110751584 -0.004708441 -0.09377716
0.072501615 0.060070977 0.026855666 0.029203888 -0.011725922 -0.059427693 -0.05590804 0.124283455
0.053273875 -0.013022064 0.086968824 -0.0732376 -0.098485895 0.121736854 0.09369334 -0.08035021
0.050312847 0.034098886 -0.010859647 -0.08177361 -0.11696046 -0.120606974 0.00085210527 -0.03831643
0.08628287 0.047480267 -0.118350685 -0.092939556 -0.033060294 0.02891253 -0.11105222 0.123375356
0.02827794 -0.059443433 0.059738804 -0.087333575 0.044951517 -0.07407557 -0.08207471 0.063605815
0.01658221 0.08122509 -0.01956598 0.030092023 0.012844927 0.058872975 -0.11547136 0.111490265
-0.11679311 0.123676635 -0.094708726 -0.10027462 -0.016597753 0.031713843 0.073166706 0.01767297
0.12274956 0.09969509 0.110657506 -0.05580765 0.0032635608 0.026083414 0.11272506 -0.08067144
0.10554364 -0.06836186 0.061118435 0.08288023 0.049469177 0.015826376 -0.030568385 -0.09893667
0.011753955 -0.032433894 0.047714755 0.04343105 -0.05708697 0.031602453 0.093867876 0.10716703
-0.11337952 0.013532154 0.10648964 0.044039715 -0.07909676 0.006194222 -0.117606044 -0.039833173
-0.12076368 0.04548791 -0.051266484 0.047182646 0.10906757 0.030403128 0.11142964 0.019060418
-0.011422221 0.027968643 0.012869042 0.069451325 -0.11170604 0.092952155 -0.07972016 -0.029667854
-0.090701886 0.02882589 -0.061134223 0.097766355 0.011739838 -0.11394874 0.03601711 0.05848657
-0.0030632531 0.013939323 -0.11526659 -0.0015236818 0.023513645 0.076044194 0.030153327 -0.07487438
0.0958307 0.013345256 0.004613381 -0.077542014 0.02537951 0.0069304155 -0.017063553 -0.011299955
-0.015700417 0.013420542 0.088002585 -0.095597945 0.08894917 0.08585343 0.059462372 0.07029165
-0.08772576 0.11762627 0.10549439 -0.003097985 -0.08667666 -0.030820267 0.007888611 -0.05341744
0.01640565 -0.07181805 -0.02703586 -0.013775984 -0.012492033 -0.04438915 -0.1050555 -0.060465526
0.019203234 0.010857019 0.028003853 -0.024180036 -0.021122325 -0.009062433 -0.07485243 -0.027001595
0.108891 -0.022361157 0.031155402 0.0033323558 -0.027196325 -0.040111102 0.05409614 0.08087979
-0.100541234 0.056188773 -0.059844583 0.09410317 0.10698267 0.03547693 0.10148083 -0.030583214
0.12289732 -0.03282657 0.031545043 0.012232267 -0.1241326 0.04283886 -0.05594796 0.09140392
-0.109427236 0.08204698 -0.07331884 -0.057603 0.044249848 -0.00032514788 -0.081608586 -0.06321422
0.09750929 0.089544825 0.026159728 0.08699839 -0.024218462 0.07662361 -0.055304956 0.015937492
-0.122936316 -0.09395096 -0.045028694 -0.08213906 -0.01615788 0.008603121 -0.038902264 -0.08206483
-0.04408695 0.05717726 -0.05466122 -0.050622113 0.027205825 0.08207264 0.098993875 -0.028078347
-0.120038666 -0.053182736 -0.008734742 0.051756818 -0.11169965 -0.04251434 -0.07243447 0.010156429
0.11691403 -0.048492093 -0.00041993684 0.036709167 0.036191724 -0.07141988 0.026910275 -0.088402994
0.043556616 0.03081455 -0.062252406 -0.031275336 -0.012132775 -0.031141214 0.097484425 -0.04103531
-0.051757473 0.10493268 0.098646 0.09028973 0.05863716 0.11449136 0.06696478 0.0131384395

attn_layers.0.attn_embedding_bias f4 [64]
00000000: 0000 0000 0000 0000 0000 0000 0000 0000
00000010: 0000 0000 0000 0000 0000 0000 0000 0000
00000020: 0000 0000 0000 0000 0000 0000 0000 0000
00000030: 0000 0000 0000 0000 0000 0000 0000 0000
00000040: 0000 0000 0000 0000 0000 0000 0000 0000
00000050: 0000 0000 0000 0000 0000 0000 0000 0000
00000060: 0000 0000 0000 0000 0000 0000 0000 0000
00000070: 0000 0000 0000 0000 0000 0000 0000 0000
00000080: 0000 0000 0000 0000 0000 0000 0000 0000
00000090: 0000 0000 0000 0000 0000 0000 0000 0000
000000a0: 0000 0000 0000 0000 0000 0000 0000 0000
000000b0: 0000 0000 0000 0000 0000 0000 0000 0000
000000c0: 0000 0000 0000 0000 0000 0000 0000 0000
000000d0: 0000 0000 0000 0000 0000 0000 0000 0000
000000e0: 0000 0000 0000 0000 0000 0000 0000 0000
000000f0: 0000 0000 0000 0000 0000 0000 0000 0000
0.0 0.0 0.0 0.0 0.0 0.0 0.0 0.0
0.0 0.0 0.0 0.0 0.0 0.0 0.0 0.0
0.0 0.0 0.0 0.0 0.0 0.0 0.0 0.0
0.0 0.0 0.0 0.0 0.0 0.0 0.0 0.0
0.0 0.0 0.0 0.0 0.0 0.0 0.0 0.0
0.0 0.0 0.0 0.0 0.0 0.0 0.0 0.0
0.0 0.0 0.0 0.0 0.0 0.0 0.0 0.0
0.0 0.0 0.0 0.0 0.0 0.0 0.0 0.0

attn_layers.0.linear_q.weight f4 [64, 64]
00000000: 2d15 2f3d 7d85 cc3b 848e 4fbd f3f5 b3bc
00000010: 8572 06bd b40f 173d 312e f2b8 d251 d23c
00000020: 967e 45bd 2cf9 a4bd d60e a0bd 6242 6f3a
00000030: b133 f03d 82b7 533c ebb2 ee3d 62bf e33c
00000040: 7c8c ebbd 2b12 613d 5ad1 98bb 8fcd ecbb
00000050: 5d3f d03c ce35 a63d f567 1ebd 38d4 6b3d
00000060: abf7 23bd 6c6c e23d 8e52 50bc 3e13 bf3d
00000070: ae9b f83c fe07 c93d d959 64bc 8ef9 72bd
00000080: 9e7d f6bd 4249 cabc 282a ce3d 31e4 a4bd
00000090: 58cd 233a 95de d3bd dfe6 243d 12b4 953c
000000a0: 1714 763d 2c4c 7ebd 1049 aebc 6c02 b63d
000000b0: c076 1e3d 1e84 6abd 3cc2 0f3c aaa9 81bd
000000c0: 7dad 363b 4ce7 953d 29fa 1cbd 8e5b 71bc
000000d0: bd90 bd3d 7f70 d3bb 21d9 703d f59f babd
000000e0: 606d d9bb 92aa da3d b76d 0abd 04e1 83bc
000000f0: 0ad4 99bd 5cf8 14bd 8c2f 39bd 74a0 073d
00000100: 2512 d0bd f0c7 b1bd 85e6 62bd c7cd b5bc
00000110: dbd5 b4bd dc23 6cbd 3b68 b9bd 9929 85bc
00000120: f6c3 c1bd 0d13 263d 5281 cbba a212 4e3d
00000130: 1d45 0cbc 45e5 edbd 8d92 903d 287b e3bd
00000140: 0b60 f1bd 1623 873d 4185 dbbc f398 6ebd
00000150: c5c1 f6bc 665e 6dbc 476d e13d f860 c13d
00000160: 51aa f43d 02f1 adbd c2ce dbbd 3a82 e83d
00000170: ebae 12bd c611 d3bd 0b48 263c a24c 07bd
00000180: db7f cb3d 8ea3 03ba dfb3 88bd 89bf 91bd
00000190: 295e dd3d cc09 5abc 1175 b83d 0784 ccbd
000001a0: 3746 e5bd 5ffc a43c b97d cd3d 05fd 49bd
000001b0: 4ee3 e83d 3489 133d 2dcd 883d 8cec a73b
000001c0: 9e7c cdbd 3e29 133d b7bd 2a3d 889b a9bc
000001d0: 81cb 3b3d 6255 83bd 6041 2fbb f74b 16bc
000001e0: ba0c 063d cf7f af3d 56f6 6c3d 8911 babc
000001f0: 5422 a1bd 44b1 e23d fce3 ae3d d44b d23c
00000200: bf06 d0bc 83f6 f2bc 4a05 fbbd 8415 7a3b
00000210: bd04 1ebd 61a3 853d d2aa b8bc a8c3 cb3d
00000220: ff96 1d3c 7bf6 d6bd 7be3 bdbd b463 ae3d
00000230: 0fca e9bd 44ad c3bd 4f85 d53c df58 d03d
00000240: 6599 c4bc 7b45 13bd 7501 bf3d 9874 77bc
00000250: c84d b4bd 1405 b6bd 74e0 be3d 8519 68bd
00000260: e2f6 b43d 8404 e03c 8a61 4939 672c b23d
00000270: eb29 be3d d077 c9bb 7ed9 f7bc 8ce6 e93d
00000280: 24d6 753d fcf4 3c3d fc1e abbd df27 8ebc
00000290: d109 0bbd a047 783d 12e0 af3d 52df 36bc
000002a0: 2dbd cd3c 50ce ee3d aa8f 163d 33fb d7bb
000002b0: b78b 963d 51f0 a93c e735 7cbb fa2c 5fbb
000002c0: d206 233d bfaf eebc f5f6 a83c 9771 0c3d
000002d0: efad 5e3c f7c1 f63d 20e7 f4bd a7d4 c93c
000002e0: 3e71 2f3d 21bb afbd 49cf f5bb 6140 323d
000002f0: e832 0bbc 29d3 f8bb 0828 8ebd a10a e93c
00000300: 6ac2 3bbd 8ee5 e8bb 1d44 583d b9fa 96bd
00000310: 1ac2 ac3a 69f4 8f3b 3fc5 fe3b 8dfa b8bd
00000320: 6270 933d 81a7 00be 2a88 d1bd d750 83bd
00000330: 4f03 053d a0a8 f9bd 30bb 87bc aacc 9dbd
00000340: 0151 1abd 49b4 163d 6ae4 18bb a2c5 4fbd
00000350: 0c72 8abd 7646 bc3d 5209 db3d d8f5 c3bd
00000360: 4200 9439 b262 e53d 1465 a2bc aa27 fa3d
00000370: 6bc8 c4bd d696 a8bd 1d7c cebd f924 11bc
00000380: c47b 58bd 2a54 1b3d d4ac 06bd 2097 cabd
00000390: c013 c93d 063a b4bd fa5d 9c3d 622e d93d
000003a0: b7fa c9bd a2fe c4bd a1bd c53c dfeb d33d
000003b0: 3bba 053d 7dc6 e83d fd2d 8fbd ee71 ff3d
000003c0: 727f d33d 2e1b c33b 2746 bd3b a839 e43d
000003d0: c9ef e3bc 979c 95bd fac7 94bd 807f 9ebd
000003e0: 7335 6b3d 9905 3cbd be2d 9fbc 0d3a 863c
000003f0: d8b8 d63d 8031 a3bd 9eee 163d be92 d2bc
0.042744804 0.006241499 -0.050673023 -0.021967864 -0.032824058 0.03688021 -0.00011548063 0.02567378
-0.048216425 -0.08055338 -0.0781533 0.0009127018 0.11728609 0.01292217 0.1165522 0.02780122
-0.11501405 0.054948967 -0.0046636285 -0.007226653 0.025420839 0.08115731 -0.03867336 0.057575434
-0.040031116 0.11055836 -0.012714995 0.09329842 0.030347671 0.098159775 -0.013937437 -0.059320025
-0.12035678 -0.024693135 0.100666344 -0.080513366 0.0006248555 -0.103451885 0.04025924 0.01827434
0.060077753 -0.062084362 -0.021275073 0.08887181 0.038687468 -0.057254903 0.008774336 -0.06331189
0.0027874403 0.07319507 -0.03832451 -0.014731301 0.09256122 -0.0064526196 0.05880082 -0.09112541
-0.006635353 0.10677065 -0.03379604 -0.016098507 -0.07511146 -0.036369666 -0.04521136 0.033112004
-0.10159711 -0.08680713 -0.05539562 -0.022192849 -0.08829852 -0.057651386 -0.090530835 -0.016255187
-0.09461205 0.040545512 -0.0015526211 0.05031074 -0.0085614 -0.11615995 0.07059202 -0.111074746
-0.11785897 0.06598489 -0.026796939 -0.058251332 -0.030121693 -0.014487838 0.11007171 0.094423234
0.11946548 -0.08493234 -0.10732795 0.11352964 -0.035811346 -0.103061244 0.010149012 -0.033032067
0.09936496 -0.0005021625 -0.06674933 -0.071166106 0.10808975 -0.013308 0.09006704 -0.0998612
-0.11195033 0.020139871 0.10033745 -0.049313564 0.1137148 0.03601952 0.06679759 0.005124634
-0.100335345 0.035928003 0.041684832 -0.020704046 0.045848373 -0.0641277 -0.0026741847 -0.009173385
0.03272698 0.085692994 0.05785211 -0.02271344 -0.07867876 0.11068967 0.08539578 0.025670923
-0.025393842 -0.029658562 -0.12256868 0.0038159797 -0.038578738 0.06525303 -0.022542391 0.09949428
0.00961852 -0.10496231 -0.09271904 0.085151106 -0.11415493 -0.09554532 0.026064543 0.10173201
-0.023998925 -0.035954934 0.0932645 -0.015103482 -0.08803898 -0.08887687 0.09320155 -0.056664962
0.08836152 0.027345903 0.0001920519 0.08699875 0.09285339 -0.006148316 -0.030255076 0.114209265
0.060018674 0.046132073 -0.08355519 -0.017352996 -0.03394491 0.060615182 0.0858766 -0.011161642
0.02511462 0.11660445 0.036758102 -0.0065912246 0.07350867 0.020744475 -0.0038484277 -0.0034053908
0.039801426 -0.029136537 0.02062557 0.034288015 0.013591274 0.120487146 -0.11958146 0.024637533
0.042832606 -0.08580614 -0.007501517 0.043518428 -0.008496024 -0.0075935316 -0.06941229 0.028447451
-0.045839705 -0.007107443 0.052799333 -0.0737204 0.0013180405 0.0043931496 0.0077749784 -0.09032164
0.0719917 -0.12563898 -0.10231049 -0.06411903 0.03247386 -0.12190366 -0.01656875 -0.07705052
-0.037674908 0.036793027 -0.0023329505 -0.050725587 -0.06760034 0.09193127 0.10695137 -0.09568375
0.00028228952 0.11200465 -0.019823588 0.122145966 -0.09608539 -0.08231895 -0.100822665 -0.008858913
-0.052852407 0.037922062 -0.032879665 -0.09892106 0.0981822 -0.088001296 0.07635112 0.1060455
-0.09862273 -0.0961888 0.024138274 0.10347723 0.032648306 0.11365984 -0.069911934 0.12472902
0.10327043 0.005954168 0.005776185 0.111438096 -0.0278243 -0.07305258 -0.07264705 -0.077391624
0.05742402 -0.045903776 -0.019430991 0.016385103 0.10484475 -0.07968426 0.036848657 -0.025704738

attn_layers.0.linear_q.bias f4 [64]
00000000: 889b 01bd 72cc 88bc 5319 45bd b1af ec3c
00000010: ffd0 0b3c e764 0d3d c110 b2bc e690 c83d
00000020: cb0f ef3d 5f8e 83bc 30b5 49bc 8e11 ca3c
00000030: df56 213d 6e70 f43d 4dab fcbd 1318 873d
00000040: ffe5 893d 9472 a53d ed09 f0bd de9c 23ba
00000050: 53cb 61bd 4378 b13c 36eb eb3d 5e0e 86bd
00000060: a0bf a3bd 9fd9 ac3d ad0d 4c3d 7c78 36bc
00000070: 4b85 de3d af56 21bd 680e 443d ad8c e7bd
00000080: caca db3d 957a f03d f8bc ef3d da3a e0bd
00000090: eccc 87bd 5765 14bd 85d1 14bc 24dd 2c3c
000000a0: dcc8 bcbd 8fc9 d9bd 4c76 1b3d 8ecb 0bbd
000000b0: 8444 f13d 9a7c 253d e1ec a63d db05 3e3c
000000c0: 6df6 03bc 63bc 913c 2ad1 de3c 2858 9ebd
000000d0: dffa c9bd e0db a03d c356 dbbc d3a8 82bd
000000e0: 4385 723d 9bc2 9d3d 1d5c bfbd 0032 9d3c
000000f0: 5946 7c3d f557 50bd effe d33c 5253 c9bd
-0.031642467 -0.01669905 -0.048119854 0.02889237 0.008533715 0.034520056 -0.021736505 0.09793262
0.11672934 -0.016059099 -0.012311265 0.024666574 0.039389487 0.11935507 -0.123373605 0.06596389
0.067333214 0.08078495 -0.11720643 -0.00062413316 -0.055125546 0.02166379 0.11519472 -0.06545709
-0.07995534 0.084399454 0.04981773 -0.011137124 0.10865267 -0.03938931 0.0478653 -0.11306129
0.10732038 0.11742131 0.11705965 -0.10948725 -0.066308826 -0.036229458 -0.0090831565 0.010550771
-0.092179984 -0.106341474 0.037954614 -0.03412967 0.117806464 0.040402032 0.0815065 0.011598076
-0.008054358 0.017790025 0.027199347 -0.07731658 -0.09862303 0.07854438 -0.02677477 -0.06379857
0.05920912 0.07703134 -0.09343741 0.01918888 0.061590526 -0.050865132 0.025878398 -0.09830345

attn_layers.0.linear_k.weight f4 [64, 64]
00000000: e40a 0fbd 59ab 93bd 2803 6c3d 383e e13d
00000010: 33d2 db3d a074 843b a688 a7bd 8285 a23d
00000020: 016e 573c 531c 8abc c81c de3c 4f1f 2bbb
00000030: 2772 fbbd 061b 203d 4888 fabd 9ce5 b0bd
00000040: a48e 953d 788c 98bd b558 4ebd 97b7 c1bc
00000050: 94de dbbd 8aea 99bd 312c debd 3fcf 46bd
00000060: 5df3 65bd ca54 86bd a30d ed3d ea37 ed3d
00000070: 77f1 563c ad7f 07bd 2a5c f3bd c4d7 d03a
00000080: 493a cbbd 2d6d 463d 19b7 75bc 7eec 523d
00000090: dfdb f7bd c68c 573d 48f1 673d e465 f3bd
000000a0: 2bff dc3d f554 f63d 91e6 44bd 1a9a 913c
000000b0: c0a9 863d fd82 ea3d 1a94 3dbd 0041 fe3d
000000c0: b220 893d 59ee dc3b 193b bf3d 446d 22bd
000000d0: be57 9ebd 2fc7 bdbd 86e6 81bd c3e7 c63d
000000e0: 05d7 853d f00e 6f3c c53a b73d 4148 bc3d
000000f0: 9eb9 6bbc 3d3a 80bd 2639 9b3d f811 263c
00000100: 9952 2bbd ec50 38bd 6b78 cabd d98e eebc
00000110: 2c64 e73d 6fd2 b53c b5de 2b3d ee54 793d
00000120: b3d5 853d 370d e03c a8ae de3d ebd4 13bd
00000130: c71d 2a3d 29c2 9fbc 8578 963d 9a2b 8cbd
00000140: b208 32bd b4d3 67bd 05f3 30bc 5c47 e9bd
00000150: ac01 893d 876c c03d e494 f43c e65c b0bd
00000160: 9138 3e3d f9c7 46bc d3c9 2a3d 459e e93d
00000170: 11c7 2e3d 50eb fbbd 103f b8bc 9cea 66bd
00000180: 299f ed3d 24ac dd3c 2d9d b2bd 83bc 1bbd
00000190: 8a8f 04bd bb86 efbd 44e8 813d 3676 99bd
000001a0: 89a1 ea3d d151 fa3d 3dfa b23d 4dde de3d
000001b0: 8a01 e63d 8225 9fbd 13f3 bdbc 3975 28bd
000001c0: c73d 6e3d b31a c3bd a97d c8bd 76b2 55bd
000001d0: 4b48 cb3d 5c50 6c3d 9438 f3bd 5a61 dd3c
000001e0: f7d7 a73c 5165 9fbc 6246 81bd 00a5 c3bd
000001f0: 2008 ee3c d0b9 4abd 5552 d9bc 96db 70bd
00000200: 198a 75bb 6809 e83d 0721 bb3d 456e 59bd
00000210: 2b7c f9bd c3e8 d53d cf87 c8bb 1084 7ebd
00000220: c06a 813c 5c86 76bc 454e 32bd a94c ab3d
00000230: aeb2 83bd cab3 7e3c 5a28 b1bb cb75 efbd
00000240: 487a e9bd 3beb fdbd cde8 6d3d 024b afbd
00000250: 50f8 14bd 57c1 b9bd becb 883d 033d 8c3c
00000260: d507 6fbd d6bf 043d 916e 853c 4f0f 0e3d
00000270: 00c1 5f3d 5b19 6a3c 75e4 9e3d 5acd aa3c
00000280: 2469 d83d 49d2 1cbc dc26 fabc e4b7 463d
00000290: 2b12 d1bd 7717 c0bd dee6 c03d 52ff 70bd
000002a0: 24a7 953d 2adf 603d 0a32 fc3d a507 6ebd
000002b0: 489e b03d cda4 393c 9b8c 7abd fc9f 1bbd
000002c0: fc22 c0bd bc62 7ebc c434 56bd 56d9 a4bd
000002d0: 993d f83d 7d0b c03d 5e3d bb3d 4ef8 97bd
000002e0: a208 89bc 1135 d03d 1d98 cabd 41bd 643d
000002f0: 3c73 c93c e396 a2bd 2a8c 8bbd 22c7 6fbd
00000300: 3afa 743c d0db a0bc efb0 0f3d 48af 24bd
00000310: baa2 2ebd 60b4 f9bc cb2d 983c bce7 d03d
00000320: 703f 88bd 53fe f63d 2914 e73d 4b38 183b
00000330: 6886 ee3c f0e3 96bd 88b2 b83d eda6 39bd
00000340: 8bd1 d6bd 9460 b7bd d752 8fbd ba11 ba3c
00000350: a7bf 113d 3255 32bb d756 d5bd bc0b 77bd
00000360: 41c0 0fbd 23f0 3f3c 851f 5c3c d28a c3ba
00000370: b037 de3d db40 a43d 7fb1 a43b 4e02 54bc
00000380: 9110 94bd 490b 9a3d 998d ecbd c6fc e9bd
00000390: 222b 71bb 52c2 893d fd0f 253d 3282 d63d
000003a0: a3e6 bd3d 2455 a1ba 5765 a0bd 58ab c6bc
000003b0: a879 4c3d fe50 b2bd c526 4abd 87d1 ddbb
000003c0: ebef e4bd 8a01 e43d 5851 efbd e718 8c3d
000003d0: b16a 6dbd a63b d6bd 0c1c aa3d 3dd3 923a
000003e0: f8f4 e0bd 7582 93bd 0dad f23d 8b99 273d
000003f0: 7b62 643d 7f56 c03d 3bb7 71bd b305 d23d
-0.034922495 -0.07210416 0.057620198 0.109981954 0.10733452 0.004042223 -0.081803605 0.07935621
0.013148786 -0.01685921 0.027113333 -0.002611119 -0.12277632 0.03908827 -0.12233025 -0.086375445
0.07302597 -0.07448667 -0.050377566 -0.023647113 -0.10735813 -0.07515438 -0.108482726 -0.04853749
-0.056140292 -0.06559141 0.115748666 0.115829304 0.013119093 -0.033080745 -0.11882813 0.0015933444
-0.099232264 0.048443962 -0.014997267 0.051495068 -0.12102484 0.052624486 0.056626588 -0.118846685
0.10790857 0.12027923 -0.048071448 0.017773677 0.06575346 0.11450765 -0.04628382 0.124147415
0.06695689 0.0067422804 0.09337444 -0.039654985 -0.07731579 -0.09266507 -0.06342797 0.09712174
0.06535152 0.014590964 0.08946756 0.09193469 -0.014387516 -0.06261108 0.075792596 0.01013612
-0.04182682 -0.044999048 -0.09886249 -0.02912085 0.11298403 0.02219507 0.041960437 0.06087201
0.065349005 0.027350051 0.10873157 -0.036091726 0.041532304 -0.019501762 0.07347206 -0.06844254
-0.043465324 -0.05659838 -0.010800128 -0.11390564 0.06689772 0.093957 0.029856153 -0.08611469
0.046440665 -0.012132638 0.04169638 0.11407141 0.042670313 -0.12300742 -0.022491008 -0.056376085
0.11602623 0.027059622 -0.08721385 -0.038021576 -0.032363452 -0.1169562 0.06343129 -0.0749325
0.11456592 0.122226365 0.087391354 0.10882244 0.11230762 -0.07770826 -0.023187196 -0.041127417
0.058164384 -0.09526577 -0.09789593 -0.052172147 0.09925898 0.057693824 -0.11876026 0.02702396
0.020488722 -0.019457491 -0.063122526 -0.095529556 0.029056609 -0.04949361 -0.026528517 -0.058803163
-0.0037466346 0.11329919 0.09137159 -0.053083677 -0.12181886 0.104447864 -0.0061197053 -0.062137663
0.015797973 -0.015046682 -0.043531675 0.08364231 -0.06430565 0.015545795 -0.0054064216 -0.11692389
-0.114002764 -0.12398382 0.058083344 -0.085592285 -0.03636962 -0.0907008 0.06679486 0.017118936
-0.05835708 0.03240951 0.016288074 0.03468257 0.05462742 0.014288272 0.077584185 0.020849872
0.10566929 -0.00957162 -0.030536108 0.048515216 -0.102085434 -0.093794756 0.094190344 -0.058837242
0.0730727 0.054900326 0.12314232 -0.05811276 0.0862394 0.0113307955 -0.061169248 -0.03799437
-0.09381673 -0.01552647 -0.052296415 -0.08049266 0.12121124 0.09377191 0.09142564 -0.07420407
-0.01672775 0.101663716 -0.098922946 0.05584455 0.02459108 -0.079389356 -0.068138435 -0.058539517
0.014952237 -0.019636065 0.035080846 -0.040206224 -0.042635657 -0.030481517 0.018576523 0.1020045
-0.06652725 0.12060227 0.11283142 0.0023226913 0.029116824 -0.073676944 0.09018427 -0.04532521
-0.10489186 -0.08953968 -0.06998222 0.02271353 0.035583165 -0.0027211425 -0.10416954 -0.060313925
-0.035095457 0.011714968 0.013435249 -0.0014918691 0.10850465 0.08020183 0.005026042 -0.012940003
-0.07229722 0.07521684 -0.11550445 -0.11425166 -0.003679939 0.06726517 0.04029845 0.104740515
0.09272506 -0.0012308699 -0.07831829 -0.024251625 0.049920708 -0.08706854 -0.04935338 -0.0067693624
-0.11178573 0.11133106 -0.11685437 0.06840687 -0.057963077 -0.10460596 0.08306131 0.001120187
-0.10984224 -0.07202617 0.11849413 0.040917914 0.05575798 0.09391498 -0.059012633 0.10254993

attn_layers.0.linear_k.bias f4 [64]
00000000: 0757 bd3c 9efb 29bd 0922 ffbd 5ee9 9fbd
00000010: 9d1e 2d3d 815f 5ebd eb2e 6f3d 24dd 9dbd
00000020: 3245 e8bd 227b 4abd 44cd 96bd ed58 083d
00000030: c73c cf3d 941d 7a3d 99c6 c4bd 6211 9a3d
00000040: db83 cb3d 0b67 d6bb 49f0 c2bc 94fc b63d
00000050: 24fd 883d b6e2 d5bd cc93 db3d 442b 053d
00000060: 688a 1bbd cd10 b7bd 54c2 5f3d 2084 ff3d
00000070: 14bb 66bc 9501 783d d601 f83a 5823 22bd
00000080: 022d e53b 42ec afbd 764b 97bd 817b 853d
00000090: af8d 60bd cc52 b03c 65d7 31bd 4a4a 49bd
000000a0: 2286 4ebd 1ab2 0e3a 818b edbb c48e a3bd
000000b0: 28a4 88bd b572 773d 9ca4 c6bd 797a cd3d
000000c0: 2e65 063d 8769 63bd fde6 43bd ac72 2dbc
000000d0: 3a0e 9dbd 6e8d cdbb d635 ea3c 5b7f c5bd
000000e0: b515 823d 1a55 cd3c 141e bf3d 7d39 c93c
000000f0: 5a35 9a3d 9559 aabd d3dd a23d 727d ed3d
0.023112787 -0.041499726 -0.124576636 -0.07808183 0.042265523 -0.0542903 0.058394354 -0.07708195
-0.11341323 -0.049433835 -0.0736337 0.03328793 0.10119014 0.061063364 -0.09608192 0.07522847
0.09937259 -0.0065430454 -0.023796218 0.08934894 0.06688908 -0.10443632 0.107215494 0.032511964
-0.03797379 -0.08938751 0.054628685 0.12476373 -0.014082689 0.060548384 0.0018921446 -0.039584488
0.0069938907 -0.085899845 -0.0738744 0.06517697 -0.05482262 0.021523856 -0.043418307 -0.049143113
-0.050420888 0.00054434093 -0.007249296 -0.07986215 -0.06671935 0.060412128 -0.096993655 0.100331254
0.032811336 -0.05552056 -0.04782771 -0.010586422 -0.07668729 -0.0062729632 0.028590124 -0.09643432
0.063517965 0.025064994 0.09331909 0.024563545 0.07529707 -0.08317868 0.07952466 0.115961924

attn_layers.0.linear_v.weight f4 [64, 64]
00000000: cd1c 52bd fb87 cabd adb3 0b3d 7ece f5bd
00000010: 5e1d d0bd ce27 d93d 930b 44bd 56f0 863c
00000020: 21c9 623d 2e6c 70b9 e90b 3ebd c615 573d
00000030: f5fa 19bd adc5 e9bd 27e5 f5bd fee3 0fbc
00000040: 014d a7bd bd1f 98bd d458 dfbd ede6 dfbc
00000050: bbab 28bd 9a9d e7bd 4933 6abc 57dc 5f3d
00000060: 7425 27bd a29f 873d 454b 93bd 405b f53d
00000070: 66e5 6cbd a516 b3bd b9c0 3cbb 28f8 bf3d
00000080: a0b8 37bd 07ee a5bc 9682 ea3d 4257 bcbc
00000090: bf8c e7bc ecad 84bd 45f8 9bbd 1bf0 91bd
000000a0: 6c13 fcbc a686 35bd 1081 a4bd 8630 9c3d
000000b0: ac48 24bc bfcb e8bd e558 c8bc 743d ce3c
000000c0: 2062 033c 9319 043d ecae de3d 5af0 4c3d
000000d0: c4a0 a23d 07a5 8a3d 6e93 c7bd 8741 f3bd
000000e0: f634 55bc 2aa2 b93a 0b0c d9bb 0265 01bd
000000f0: 2ad1 ba3d 9228 3fbb 6080 f2bc c658 a5bd
00000100: 03c3 b4bd 2262 f93d e891 debd 010d e6bd
00000110: 489f 05bd 3f56 bfbc ca82 53bd 7a12 9abd
00000120: ed61 f63b ac3d b63d 3dcb 8f3c 302b 983d
00000130: bf5b 6cbc 2f9f adbd ef51 43bd e163 e03d
00000140: 133f 3dbc 56d1 ec3c 24ff 5b3d 607b d9bd
00000150: da9c 383d 356d c03d 1b76 043d 1c32 23bc
00000160: a7cd bdbd 3119 e8bd ead3 2abd ff30 9c3c
00000170: 3986 99bd 0593 d43d 7893 0e3d f32f cbbc
00000180: a9f4 a2bd 55c4 15bd f45b d6bd 40ac 5d3d
00000190: 0c59 b63d c6d2 53bd 59fc 2fbd cdcf d03c
000001a0: 4952 f43d d045 89bd 095e 34bd 7973 813d
000001b0: c9c2 3bbd 1cb7 933d cb70 a0bd 8890 c8bd
000001c0: d0b0 01bd f974 cdbd 68bc eebc 8bd2 e4bc
000001d0: d6ac b6bd 0636 8abd 3975 693d ebaa 84bd
000001e0: a1d4 9f3b 5494 af3d 5eea 86bd 50d6 9138
000001f0: e5d0 463d ed10 283c 2abe 3cbd a69a f23d
00000200: 3c45 d4bd 02a1 e13d 2bcb 89bd 9ced 14bc
00000210: b512 8fbd bb1d a43d 78c5 c33c e2f0 6e3d
00000220: 523d 323c b554 12bd a096 95bd aa77 ccbd
00000230: 05ec 90bd 708d d83c 1b52 b4bc ffbd c4bd
00000240: 27c1 35bd 2f39 5dbd 708a 80bd 5218 b73d
00000250: 726f 85bd 75bd 5fbc fbc2 a2bd f5d1 a03c
00000260: 1542 e4bd 33a9 f53d 1dcc febd 3132 c5bd
00000270: 3589 c7bd 34c9 a5bc 936e a2bc ef8c c93d
00000280: 554f 64bd d391 8cbd ee0e d53d 6f76 193d
00000290: 88af f73d 121f ec3d 2602 9c3d 8b0b f33d
000002a0: f7dc 4abd 8679 af3b 10f4 c4bd 0177 bfbd
000002b0: c501 f93d d03c d83d 452d b5bd 1f76 8b3c
000002c0: cbcf d03d 0bed 20bd 797a 2e3d 722e d23d
000002d0: d705 9e3d d834 3cbd 9809 1cbc 2c22 913d
000002e0: 063b 0dbd fc4e 983d 5c5b 193d 4f28 aebd
000002f0: 5cac 29bd 2345 fe3d 9bab d6bb 58f1 aa3d
00000300: 691b f2bc 5874 eabd fe06 b53d 0be1 f9bd
00000310: e9f8 d73d 0526 883d 2509 7c3d fd10 6f3d
00000320: 39b7 c73c e2d5 d73c 9880 a93d 83c4 663d
00000330: 90e2 8a3d a9e6 db3d 8fa8 ae3b ca2c 163d
00000340: 235d 78bd cf54 0dbd 1d88 f3bd c771 e0bd
00000350: 7790 1e3d 1d54 7b3d 39f3 3dbb fe64 ba3d
00000360: 6c84 95bd 155c c63d a33d 6c3c 0398 9d3d
00000370: d135 873d abcf d4bd 9601 643d 70c5 eb3d
00000380: 3e23 ee3d bad1 963d e329 f8bd d7ec 2abc
00000390: f77f e0bd 62b9 a53d d3c6 213d 1061 f53d
000003a0: 04e3 823d ee6a c63d 6508 403a 4578 cd3d
000003b0: 1888 be3d cd3e c8bd 607f e13d 4c81 b7bc
000003c0: 25d1 bf3d 926e 4a3d f2df bd3b 6508 29bd
000003d0: c88c fbbd 7e0b 253d a56f a0bd fe77 80bd
000003e0: 7b22 cebd c04b 6dbd 60c2 133d 8df6 d7bb
000003f0: fc9a f33d eb0b 8abb 15b1 bcbd 44d1 f9bd
-0.051296998 -0.098892175 0.0341069 -0.12002276 -0.10161851 0.10603295 -0.0478626 0.016472023
0.055367593 -0.00022928484 -0.046398077 0.052511 -0.037592847 -0.11414657 -0.12006598 -0.008782385
-0.08168984 -0.074279286 -0.109056145 -0.027331794 -0.0411794 -0.11309357 -0.014294454 0.05465349
-0.040807202 0.066222444 -0.07192091 0.11980295 -0.05783596 -0.087445535 -0.0028801395 0.09373504
-0.044853806 -0.020255102 0.114506885 -0.022990827 -0.028265355 -0.064784855 -0.07615713 -0.071258746
-0.03077098 -0.044317864 -0.08032429 0.076264426 -0.010027092 -0.113669865 -0.02445645 0.025175788
0.008019 0.032250952 0.108732074 0.050033905 0.0794082 0.06769758 -0.09744917 -0.11877733
-0.013013115 0.0014162709 -0.00662375 -0.03159047 0.09121926 -0.002916847 -0.02960223 -0.08073573
-0.08826258 0.121769205 -0.10867673 -0.11232949 -0.032622606 -0.023356555 -0.051638402 -0.075230554
0.007518998 0.08898482 0.017552966 0.07430112 -0.014426171 -0.084776275 -0.04768556 0.109565504
-0.011550683 0.028908413 0.053710118 -0.10619235 0.04507146 0.093958296 0.032339197 -0.0099606775
-0.09267741 -0.1133293 -0.041706003 0.019066332 -0.07496304 0.10379604 0.034808606 -0.024803137
-0.079568215 -0.03656419 -0.104667574 0.05411935 0.08903703 -0.05171468 -0.042965267 0.025489712
0.11929757 -0.06702769 -0.04403499 0.06320853 -0.04584006 0.0721266 -0.078340136 -0.09793192
-0.031662762 -0.100320764 -0.029142573 -0.027932426 -0.089196846 -0.067485854 0.056996558 -0.064779125
0.0048776423 0.08573213 -0.06587671 6.9540576e-05 0.04853906 0.010257942 -0.046079792 0.11845903
-0.10364768 0.11017038 -0.06728204 -0.009089854 -0.0698599 0.08013483 0.023897871 0.058335193
0.010878878 -0.035725314 -0.0730412 -0.099837616 -0.07076267 0.02643463 -0.022011807 -0.096065514
-0.044373658 -0.054009613 -0.06276405 0.089401856 -0.06515397 -0.01365601 -0.07947346 0.019631365
-0.11145417 0.11995163 -0.12441275 -0.09628714 -0.09742967 -0.020237543 -0.019828117 0.09841334
-0.05573972 -0.06863751 0.10403238 0.037466463 0.12094027 0.11529364 0.07617597 0.11867436
-0.049527135 0.005355063 -0.09616864 -0.0934887 0.12158541 0.10558474 -0.08846525 0.017024098
0.10195883 -0.03928856 0.042597268 0.10262765 0.077159576 -0.045948833 -0.009523772 0.07086596
-0.034480117 0.0743694 0.037440643 -0.08503782 -0.04142414 0.124155305 -0.0065512187 0.08346814
-0.029554086 -0.11447972 0.08839224 -0.12201127 0.10545523 0.06647877 0.06153216 0.05836581
0.02437936 0.026347104 0.082764804 0.056339752 0.067814946 0.10737354 0.0053301523 0.036663808
-0.060635697 -0.034504708 -0.11891196 -0.10959201 0.03871199 0.061359514 -0.0028984083 0.09101294
-0.07300648 0.09685532 0.014418992 0.076950096 0.066020615 -0.10391172 0.055665575 0.115122676
0.11627816 0.07364221 -0.12117364 -0.010432444 -0.10961907 0.080919996 0.039496254 0.11981404
0.06390956 0.09688364 0.00073254696 0.10032705 0.093033016 -0.09777603 0.11010623 -0.02240052
0.09366063 0.049421854 0.0057945186 -0.04126777 -0.12282711 0.040294163 -0.078337945 -0.06272887
-0.100651704 -0.05793357 0.036074042 -0.0065906704 0.11894795 -0.0042128465 -0.09213463 -0.121981174

attn_layers.0.linear_v.bias f4 [64]
00000000: 7ef5 c7bc c123 c6bd bd30 863d eeb1 f63c
00000010: 5db3 153d 430e cf3c 63b1 673d 0b8a bfbd
00000020: d375 f63d 4103 703d e533 c93c 7ba4 743d
00000030: 5652 e1bd 6a28 bdbc e8eb 0b3c 5dcd b73d
00000040: 7fa1 0b3d dd27 e1bd c1ee c13c fa3c ea3d
00000050: a75b 20bc a514 fe3d 6b44 b4bd 9da6 0ebd
00000060: ca2d edbd f8e6 2c3d bfab f43d 2ad3 b43d
00000070: 5432 6abd e341 143d d1ec b13d e852 e3bd
00000080: 81f4 343c 6b20 b8bd 619b 03bd 3c5f 67bd
00000090: 571c 9fbd d2da ea3d a73c cfbc 27be 863d
000000a0: 0156 aa3d 22a7 da3d 370d 91ba 8d7c aa3c
000000b0: b0fb 0dbd 28ed 4abc a4a1 1bbd e0f8 16bd
000000c0: 07a0 6b3d 897c 033d 1fb4 afbd bf51 093d
000000d0: 4b45 f43b 019e 2ebd 71fc bcbd 7413 18bc
000000e0: 8ece b23d 892f 983c f57d a6bd 1a63 1fbd
000000f0: 0a04 783d f271 b6bd 4d49 97bd de40 36bd
-0.024409052 -0.09674788 0.06552265 0.03011414 0.036548007 0.025275355 0.056565654 -0.093525015
0.12034192 0.058596853 0.024560878 0.059727173 -0.110020325 -0.02309056 0.008540131 0.08974717
0.03408956 -0.109939314 0.023673417 0.114374116 -0.009787477 0.124062814 -0.08802112 -0.034826864
-0.11580999 0.042212456 0.119468205 0.08829339 -0.057176903 0.036195647 0.08687747 -0.110997975
0.011044622 -0.08990558 -0.032130603 -0.056487307 -0.07769077 0.11467518 -0.025297476 0.065792374
0.08317185 0.10676409 -0.001106656 0.020811344 -0.034663856 -0.012385644 -0.03799595 -0.03685844
0.05752566 0.032101188 -0.08579277 0.033525225 0.0074545494 -0.042631153 -0.09227837 -0.009281982
0.087308034 0.018577354 -0.08129493 -0.03891287 0.060550727 -0.08908452 -0.07387028 -0.044495456

attn_layers.0.feedforward.0.weight f4 [4, 64]
00000000: 345f 943d 6619 a5bd a0da 1e3d 80d0 18bb
00000010: 9a8c f13d d082 f63c 3c4b edbd f021 f9bd
00000020: 9e38 863d 2e2b e4bd 660c cb3d 08e2 47bd
00000030: ce3c c9bd b811 08bd ac5d 1ebd c6b2 d03d
00000040: b025 4a3c 427a a5bd b6d6 fdbd fcea 033d
00000050: 1068 39bc e0ce c03d 203e fc3b 1896 fcbc
00000060: 66de d9bd 909b dbbd 1439 cd3d 304d d43c
00000070: c002 8dbb dc35 463d c42a 81bd 30df 42bd
00000080: 3649 a53d 2ce4 dabd 30a3 aa3c 0028 a0bd
00000090: 2e7c 84bd 80ed 3abc 7e75 cf3d 683d 4bbd
000000a0: e039 a1bb 6c8c df3d 58ef 113d 58ec 57bd
000000b0: 267d cdbd 72e1 a43d a0a4 af3b 4009 54bb
000000c0: f8e5 ac3d 8a8d f63d 98db c13c 32aa e0bd
000000d0: 4270 c8bd a0d3 51bc 508b 0a3d c262 cfbd
000000e0: 2836 b1bd 7c87 623d 06e4 8f3d 88b1 82bc
000000f0: 4ed2 a0bd ea07 c1bd e266 a0bd 7a76 d2bd
00000100: 14f8 69bd 815e eb3c 9e0b e9ba fa94 99bd
00000110: 69aa c83d c694 f63c ec7e c4bc 698d 9abd
00000120: 6902 7c3c 81f4 a6bd d299 a3bc 6348 f9bc
00000130: 1d6d f63d 1c66 603d a0c3 c73c 09b0 a33c
00000140: c0cb aebd 62a5 c13d 5ab7 1e3c aa95 6f3c
00000150: ec50 46bc 8b4c b5bd 22cd d53d 4fb3 c8bd
00000160: b535 da3d 8dcc 533d 7700 d8bd 4a4d 9abd
00000170: 1905 afbd fafb 803a 7531 a3bc 8dc9 5abd
00000180: d9c3 a2bd c48f f1bc fe89 c43d 8b19 e9bc
00000190: 629e a53d 0a53 fd3d ce92 f1bd 86db 98bc
000001a0: 5cd2 28bd d5f8 793c 52dc f6bd 9a2f 633d
000001b0: da85 bbbc dfff 25bc 4b4b 92bd 0171 cc3d
000001c0: 5e68 e3bc b0c9 d43d a6bd 6c3d da56 e63d
000001d0: b399 cd3d 801a 9b3d 0ffd a83d dcc6 c13d
000001e0: f274 d03c bccc 9fbd 1622 e3bd bd76 d43d
000001f0: 4b13 7c3d bbcb 62bd 97e2 ae3d 6239 6d3d
00000200: 359c e7bc 75ec dd3d e4e9 2abd 83fa 81bd
00000210: 4ceb 983d 95a3 e6bc 52a4 50bd 8d7d ba3d
00000220: 3d87 8d3d ec4a 88bc 96c6 97bc 7977 c23b
00000230: 4bb0 10bd 52be d8bc e13e 2a3d 9f8d e9bd
00000240: 183b 8f3d cb3f ff3d 3f0c 08bd c7a0 523d
00000250: d613 d63d 336f bfbc 1b8d af3d 03e2 41bd
00000260: 71b8 b43c c25d 573d c829 003e 9437 b4bd
00000270: 7139 2ebc 5fc0 b33d 77af 27bd 60af babd
00000280: 2d75 a4bc 0e4e 57bd 9585 fd3c 6998 4a3d
00000290: 6184 d03d beae 01bc 4189 90bd 8cbb 883d
000002a0: c569 17bd 5f72 01bc 815e cb3d 86f4 f1bd
000002b0: 4241 c2bb afb1 80bd aec2 dcbd 2e63 40bd
000002c0: cda1 fa3c f78e 393d 0338 f1bd b994 ffbd
000002d0: 6546 833d 326c c8bd 2244 933d 0368 023d
000002e0: 9b7f 0abb 91db bebd dfca 95bb 3e20 d73d
000002f0: bcf9 973d fff3 37bd 871e d93d 6d9e e93d
00000300: d4f1 903d 9670 723d 380c 5e3d 56f0 903c
00000310: 73bd 95bd 0117 e8bd af03 843d 008e f5bd
00000320: 2bf1 eebd 0aeb a23d 7a43 72bd 170a 43bb
00000330: b805 af3d 66ea b23c 1264 603d 66bb e1bd
00000340: 706b 793b fc41 d13d fd5e 893d df95 9c3d
00000350: cd6b e33d 6f94 93bd afe7 b7bd a1a8 4bbd
00000360: 9e15 78bd df2d b23d 5205 153d 4733 a43d
00000370: c28b 60bd 6e6c a2bd 53e8 c2bc 8af6 97bd
00000380: 7c9b a3bc c585 8e3d 2607 c1bd c8ea cf3d
00000390: 0078 443d d5c5 51bd 2e2f 32bc 5499 d8bd
000003a0: ca28 853d e43a 2a3d 180e c2bd 0546 6bbd
000003b0: 48c0 af3d d550 bc3d d6af efbd cb6a fabd
000003c0: 424d b3bd 5478 a9bd 738f 983d 1a39 3dbd
000003d0: 5ae6 e6bb ceb6 b5bd fdcb 21bd 99d4 333d
000003e0: e8f9 9dbd 5189 a3bc 27ee c13d 6a59 e6bc
000003f0: d335 33bc 6c6b 583d b0ba 1d3c 94e7 b43d
0.07244721 -0.08061485 0.038782716 -0.0023317635 0.11794396 0.030091673 -0.115866154 -0.12164676
0.065537676 -0.11141048 0.09914474 -0.048799545 -0.09826051 -0.033220023 -0.03866355 0.10190348
0.012338087 -0.080799595 -0.123944685 0.03220652 -0.011316314 0.09414458 0.0076978356 -0.030833289
-0.10638122 -0.107230306 0.100206524 0.025915712 -0.0043033063 0.048391208 -0.06306985 -0.04757613
0.080706045 -0.106880516 0.020829767 -0.078201294 -0.06468998 -0.0114091635 0.10129832 -0.04961911
-0.0049202293 0.10915455 0.035628647 -0.05271563 -0.10033636 0.08050813 0.005360201 -0.0032354146
0.084423006 0.12038715 0.02366428 -0.10969962 -0.097870365 -0.012806803 0.033824265 -0.101262584
-0.086529076 0.05530499 0.07025914 -0.015953794 -0.078526124 -0.094253376 -0.07832123 -0.10276504
-0.05712135 0.028731586 -0.0017779951 -0.07499118 0.09798128 0.030100238 -0.023986302 -0.07546503
0.015381434 -0.08152104 -0.019970808 -0.030430024 0.120325305 0.05478488 0.024385273 0.019981401
-0.08534956 0.094553724 0.009687269 0.014623085 -0.012104254 -0.0885249 0.104395166 -0.097998254
0.10654775 0.051708747 -0.10546964 -0.07534273 -0.08545894 0.000984072 -0.019921044 -0.05341487
-0.07947511 -0.029487498 0.095966324 -0.028454563 0.0808685 0.12369354 -0.11795579 -0.018659364
-0.04121624 0.01525708 -0.120537415 0.05546532 -0.022890974 -0.010131805 -0.07143267 0.09982491
-0.027759727 0.10390031 0.05779805 0.11247034 0.100390814 0.07573414 0.08251392 0.094617575
0.025446389 -0.07802722 -0.11090486 0.1037421 0.061541837 -0.055370074 0.08539312 0.057916053
-0.028272728 0.10836116 -0.04172696 -0.063466094 0.07466754 -0.028154174 -0.050937958 0.09105978
0.0691056 -0.016637288 -0.01852731 0.0059346524 -0.035324376 -0.02645794 0.041563872 -0.11403965
0.06993693 0.124633394 -0.033214804 0.05142286 0.10453002 -0.023368454 0.085718356 -0.047334682
0.022060605 0.05257965 0.12515938 -0.08799663 -0.010633812 0.08776926 -0.04093882 -0.091154814
-0.020075405 -0.052564673 0.030947486 0.049461756 0.10181499 -0.007915197 -0.07057429 0.06676397
-0.036966104 -0.007900803 0.099301346 -0.11814217 -0.0059281895 -0.062838905 -0.1077932 -0.046969585
0.03059473 0.045302358 -0.117782615 -0.124795385 0.06409911 -0.097862616 0.0719073 0.031837475
-0.0021133188 -0.09319223 -0.0045713033 0.105041966 0.0742068 -0.044910427 0.10601526 0.114071704
0.07077375 0.0591894 0.05421087 0.017692726 -0.07311525 -0.11332513 0.06446015 -0.11989975
-0.11667093 0.079549864 -0.059146382 -0.0029760653 0.08546013 0.021840286 0.054782934 -0.110220715
0.0038058423 0.10217664 0.06707571 0.07645773 0.11104546 -0.07206046 -0.08979737 -0.049721364
-0.06056749 0.087001555 0.036382027 0.08017593 -0.054820783 -0.079308376 -0.023792421 -0.074200705
-0.019971602 0.06959108 -0.094251916 0.10152203 0.047966003 -0.051214058 -0.010875506 -0.1057612
0.065019205 0.04156007 -0.094753444 -0.057439823 0.085815966 0.09195105 -0.1170346 -0.122274004
-0.0875497 -0.08274904 0.07449236 -0.046197034 -0.007046503 -0.08872758 -0.03950118 0.04390392
-0.077136815 -0.019962939 0.09469252 -0.028118808 -0.010938126 0.05283682 0.009627029 0.088332325

attn_layers.0.feedforward.0.bias f4 [4]
00000000: ce70 e1bd 7f06 503d b1e9 11bd 5a09 f33d
-0.11007844 0.050787445 -0.035623256 0.11867018

attn_layers.0.feedforward.2.weight f4 [64, 4]
00000000: 88d7 8fbd 9bf6 de3e 7aa5 913e acc0 98bc
00000010: 601a dd3e 0715 e7bc d311 89bd f6d6 0d3e
00000020: 16f4 92be d91e bfbe 2ba4 e8be 5876 6f3e
00000030: fab5 b0be a49c 953e 8f8f b6be 06e1 b53e
00000040: 60a2 843d 5f97 8a3e 6a0e 2139 7eff c1bc
00000050: 9813 9f3d c397 bebe 59b8 1a3e 7b3d 3abe
00000060: fcaf febe 5bef dfbe 0c3d 9c3e d730 923e
00000070: 2409 543e 0b9f 8c3e f271 57be e367 913e
00000080: 7c2e 393e fe6a b4bd 1572 f83e 7f85 88be
00000090: f0a4 b13d f2f3 e6be b7de c0be 3ce0 ebbd
000000a0: b8ca 20be 9e63 d1be 10ab 0dbd 67bb fa3e
000000b0: 142f 323e ad6f 393e eb49 d8bd 8686 cdbd
000000c0: ee4e 96be 1df3 12be 677b d8be 2a38 fe3e
000000d0: 745d ed3e 86a2 edbd 6e7f 733e 2334 ce3e
000000e0: 7204 ab3e 5092 b1be f287 953e eef4 afbe
000000f0: a86e 60be fbb9 08be 4167 f1be 5e41 e33d
00000100: 5825 81bd 8465 bcbe 5b8a 9bbd 485e dabe
00000110: 0086 3cbb 328f e3be 8313 9f3e f3f1 1bbe
00000120: 9c9b f53e 2220 ae3e 3c58 7e3d fe22 ecbe
00000130: 6018 5fbd 8802 f4bd a9af 77be 0045 b93e
00000140: 889d 95be 8e91 16bd c5c9 b7be 6ce2 5e3e
00000150: d2f6 f33e 1946 a6be 11c0 493e 1dff 013e
00000160: f0ed 153d 5a8d 6abd c6c3 7b3d 2eb6 19be
00000170: 40de 353d 742e c8be 204c 393e 7ca0 6abe
00000180: 602c acbe 8613 88be 64f0 943e d2be 5dbe
00000190: 8c22 abbe aa80 d93e 478c 84be f026 e23e
000001a0: 8080 fb3b aaa3 813d 90a3 463c 4e05 e63e
000001b0: 9c3d 9dbe fc72 64be b20e c1bc 5f86 953d
000001c0: 8649 9e3e 783f cbbe 2f58 b13e 3e0c 9dbe
000001d0: 1659 92be 89a5 953e fca2 f23e 722b 843e
000001e0: be05 c1be c975 3dbe 6a35 953d 3150 b33e
000001f0: d0c2 b7be 65a3 d8be ddef 693e cbd8 6c3e
00000200: e0d4 cc3e 856a 01be 738f a63d 12e4 dd3e
00000210: c000 3c3c 62c3 853e 7a4a c63e 317f a9be
00000220: 9afe 82be b2be 36bc f213 95be 0341 4f3e
00000230: f0bd 2d3d 3d3c a9bd 1a47 ccb9 b697 cbba
00000240: eccc 49be f0f3 c33d 2752 11be be77 9dbc
00000250: 301c bdbd 0d51 2fbd ce28 573e 7b0c 9e3e
00000260: eee7 9d3e eda0 f1bd b189 76be 2b77 b9be
00000270: e0e3 6ebd 6c2e d73e dd70 ee3e 1cb6 b23e
00000280: 7029 0bbd 51e5 8d3e 1656 7dbd 7fc1 a7bd
00000290: c6f3 e9be 3296 c63e f9ae 01be a11c fcbd
000002a0: ac52 0bbe a4ce c2be fb31 e03e 1ae4 a6be
000002b0: 80fd 35be 67e1 dabe 96dc d0bd 43f6 433e
000002c0: 2ac2 aebe f9dc c33e 53b7 8a3e 5a48 82be
000002d0: 1806 38be 86a7 7f3e f357 ab3e d017 2e3e
000002e0: 64f0 ccbe 4308 a63e 5d10 b1be e473 1e3e
000002f0: 2286 823e 1b2a f1be 41e6 d93e d456 873e
00000300: 4c0a 083e 7134 ff3e 8bc9 913e 1f97 f5be
00000310: 6886 cb3d 18bd e8be c081 ab3e 6f1f 533e
00000320: 7c04 ea3e 64e3 de3e 412f a3be 98eb 833e
00000330: 30a2 ca3d f5fb 05be 4ac8 c13d aec3 a4be
00000340: 7ea6 ae3e b727 143e ff91 c63e 8f3a 0e3e
00000350: 68fb f23d 2be9 c3bd b776 0b3d e876 a23e
00000360: 0085 ac3b 9f45 cbbe 64d4 57be 34e0 c33e
00000370: 8097 56be b58a 853e 728f 7b3e da28 cf3e
00000380: 80e7 2ebc 98c0 823e 080b 093e 2fd5 dcbe
00000390: 405e be3c a7ed 6e3e 5929 d9be 79b7 44be
000003a0: 4c59 f7be 4c4a a73e cb44 debd 34c2 de3e
000003b0: 06dd df3e e947 363e e461 bb3e d4dd 893e
000003c0: 8040 cfbc 033d 643e f68a cfbe 6da9 5fbe
000003d0: 48a0 e43d f89f 07be cf77 29be 660f 98be
000003e0: 186c 4f3e ecc2 62bd 3fbd c83d 981b bfbe
000003f0: 9878 8cbd e22a dd3e 4017 dc3d 7571 f1be
-0.07023531 0.4354752 0.2844656 -0.01864656 0.43184185 -0.028208269 -0.06692853 0.13851532
-0.28701848 -0.37328222 -0.4543775 0.23384988 -0.34513837 0.2922107 -0.35656402 0.35523242
0.06476283 0.27068612 0.00015359526 -0.023681398 0.07767409 -0.3722516 0.15109386 -0.18187515
-0.4974364 -0.437373 0.30515325 0.28552887 0.20706612 0.2746509 -0.2103956 0.28399572
0.18084139 -0.0880947 0.48524538 -0.2666435 0.086740375 -0.4510799 -0.37669918 -0.11517379
-0.15702331 -0.40896314 -0.034586966 0.48971102 0.17400771 0.18109007 -0.10560974 -0.10035424
-0.29357094 -0.14350553 -0.4228165 0.49652225 0.46360362 -0.116032645 0.2377908 0.40274152
0.3340183 -0.3468194 0.2920528 -0.34366554 -0.21917212 -0.13352196 -0.4714909 0.11096452
-0.06305951 -0.367962 -0.075947486 -0.42650056 -0.0028766394 -0.44445187 0.31069574 -0.15229015
0.47970283 0.3400889 0.062095866 -0.46120447 -0.054466605 -0.11914545 -0.24188103 0.36185455
-0.2922175 -0.036759906 -0.35896125 0.2176606 0.47649246 -0.32475355 0.19702174 0.12694974
0.036603868 -0.05726371 0.061466 -0.15010902 0.044401407 -0.3909794 0.18095446 -0.22912782
-0.33627605 -0.26577395 0.29089653 -0.21654823 -0.33424795 0.42480975 -0.25888273 0.44170332
0.0076752305 0.063300446 0.012123957 0.44925922 -0.30711067 -0.22309488 -0.023566578 0.0730102
0.3091547 -0.3969686 0.3463759 -0.30673403 -0.28583592 0.29227856 0.47389972 0.25814396
-0.37699693 -0.18501963 0.072855785 0.3502212 -0.35890818 -0.4231216 0.22845407 0.23129575
0.4000616 -0.1263829 0.081328295 0.43338066 0.011474788 0.26125628 0.38728696 -0.33104852
-0.2558487 -0.011153864 -0.2911678 0.20239644 0.042417467 -0.08263443 -0.00038962887 -0.0015532884
-0.19707078 0.09568012 -0.14191495 -0.019222137 -0.09233892 -0.042801905 0.2101166 0.30868897
0.3084101 -0.11798272 -0.24075963 -0.3622373 -0.058322787 0.42027605 0.46570483 0.34904563
-0.033975065 0.27714017 -0.061849676 -0.08191203 -0.45693797 0.38786465 -0.12664403 -0.12310148
-0.13605756 -0.3804828 0.43788132 -0.32595903 -0.17772484 -0.42750093 -0.101983234 0.1913691
-0.3413251 0.38254526 0.2709299 -0.25445825 -0.17971075 0.24966249 0.33465537 0.17001271
-0.40027153 0.32428178 -0.34582797 0.15473896 0.2549296 -0.47102436 0.42558482 0.26433432
0.13285178 0.49844697 0.28474078 -0.4796686 0.09937745 -0.45456767 0.3349743 0.2061746
0.45706546 0.4353286 -0.3187199 0.2576568 0.09894216 -0.13084395 0.0946203 -0.32180542
0.34111398 0.14468275 0.3878326 0.13889526 0.11864358 -0.09565958 0.034048762 0.31731343
0.0052648783 -0.39701554 -0.21077114 0.3825699 -0.2095623 0.26082388 0.24566439 0.40460855
-0.010675311 0.25537562 0.13383114 -0.43131396 0.023238301 0.23332845 -0.42414358 -0.19210614
-0.48310316 0.32673872 -0.10852965 0.4350754 0.43723315 0.17800869 0.36598122 0.26927054
-0.02529931 0.22288899 -0.40535706 -0.21841975 0.11163384 -0.13244617 -0.1654961 -0.29699248
0.20256078 -0.055361673 0.09801721 -0.3732574 -0.06858939 0.4319678 0.10746622 -0.47156873
